…
x19a1ead3b38&gt;</code></pre><h1 id="查看模型的网络结构"><a href="#查看模型的网络结构" class="headerlink" title="查看模型的网络结构"></a>查看模型的网络结构</h1><figure class="highlight python"><table><tr><td class="gutter"><pre><span class="line">1</span><br></pre></td><td class="code"><pre><span class="line">model.summary()</span><br></pre></td></tr></table></figure><pre><code>Model: &quot;sequential_1&quot;_________________________________________________________________Layer (type)                 Output Shape              Param #   =================================================================conv2d_1 (Conv2D)            (None, 38, 38, 32)        896       _________________________________________________________________activation_1 (Activation)    (None, 38, 38, 32)        0         _________________________________________________________________conv2d_2 (Conv2D)            (None, 36, 36, 32)        9248      _________________________________________________________________activation_2 (Activation)    (None, 36, 36, 32)        0         _________________________________________________________________max_pooling2d_1 (MaxPooling2 (None, 18, 18, 32)        0         _________________________________________________________________dropout_1 (Dropout)          (None, 18, 18, 32)        0         _________________________________________________________________conv2d_3 (Conv2D)            (None, 16, 16, 64)        18496     _________________________________________________________________activation_3 (Activation)    (None, 16, 16, 64)        0         _________________________________________________________________max_pooling2d_2 (MaxPooling2 (None, 8, 8, 64)          0         _________________________________________________________________dropout_2 (Dropout)          (None, 8, 8, 64)          0         _________________________________________________________________flatten_1 (Flatten)          (None, 4096)              0         _________________________________________________________________dense_1 (Dense)              (None, 256)               1048832   _________________________________________________________________dense_2 (Dense)              (None, 13)                3341      =================================================================Total params: 1,080,813Trainable params: 1,080,813Non-trainable params: 0_________________________________________________________________</code></pre><h1 id="查看损失"><a href="#查看损失" class="headerlink" title="查看损失"></a>查看损失</h1><figure class="highlight python"><table><tr><td class="gutter"><pre><span class="line">1</span><br><spa
…
